call with args: Namespace(base_lr=1e-06, batchsize_per_gpu=8, checkpoint_dir='results', clip_gradient=0.1, dataset_num_workers=4, eval_every_iteration=300, gpu='0', hidden_channels=128, hidden_dims=128, in_channels=3, in_dim=50176, is_pretrain=False, log_every=10, loss_classes_weight=5, loss_severity_weight=5, max_epoch=200, num_blocks=2, num_classes=5, num_severity=4, out_channels=64, shortcut=False, start_epoch=0, stride=1, weight_decay=0.0)
Detection(
  (classify): Classification(
    (block0): LargeBackBone(
      (backbone): BackBone(
        (conv1): Conv2d(3, 128, kernel_size=(3, 3), stride=(2, 2), padding=(1, 1), bias=False)
        (maxpool): MaxPool2d(kernel_size=3, stride=2, padding=1, dilation=1, ceil_mode=False)
        (bottlenecks): Sequential(
          (0): BottleNeck(
            (branch2a): Conv2d(128, 128, kernel_size=(1, 1), stride=(1, 1), bias=False)
            (branch2b): Conv2d(128, 128, kernel_size=(3, 3), stride=(1, 1), padding=(1, 1), bias=False)
            (branch2c): Conv2d(128, 256, kernel_size=(1, 1), stride=(1, 1), bias=False)
            (short): Conv2d(128, 256, kernel_size=(1, 1), stride=(1, 1), bias=False)
            (act): ReLU()
          )
          (1): BottleNeck(
            (branch2a): Conv2d(256, 256, kernel_size=(1, 1), stride=(1, 1), bias=False)
            (branch2b): Conv2d(256, 256, kernel_size=(3, 3), stride=(1, 1), padding=(1, 1), bias=False)
            (branch2c): Conv2d(256, 512, kernel_size=(1, 1), stride=(1, 1), bias=False)
            (short): Conv2d(256, 512, kernel_size=(1, 1), stride=(1, 1), bias=False)
            (act): ReLU()
          )
        )
        (conv2): Conv2d(512, 3, kernel_size=(1, 1), stride=(1, 1), bias=False)
      )
      (norm): BatchNorm2d(3, eps=1e-05, momentum=0.1, affine=True, track_running_stats=True)
    )
    (pool): AvgPool2d(kernel_size=2, stride=2, padding=0)
    (block1): BackBone(
      (conv1): Conv2d(3, 128, kernel_size=(3, 3), stride=(1, 1), padding=(1, 1), bias=False)
      (maxpool): MaxPool2d(kernel_size=3, stride=2, padding=1, dilation=1, ceil_mode=False)
      (bottlenecks): Sequential(
        (0): BottleNeck(
          (branch2a): Conv2d(128, 128, kernel_size=(1, 1), stride=(1, 1), bias=False)
          (branch2b): Conv2d(128, 128, kernel_size=(3, 3), stride=(1, 1), padding=(1, 1), bias=False)
          (branch2c): Conv2d(128, 256, kernel_size=(1, 1), stride=(1, 1), bias=False)
          (short): Conv2d(128, 256, kernel_size=(1, 1), stride=(1, 1), bias=False)
          (act): ReLU()
        )
        (1): BottleNeck(
          (branch2a): Conv2d(256, 256, kernel_size=(1, 1), stride=(1, 1), bias=False)
          (branch2b): Conv2d(256, 256, kernel_size=(3, 3), stride=(1, 1), padding=(1, 1), bias=False)
          (branch2c): Conv2d(256, 512, kernel_size=(1, 1), stride=(1, 1), bias=False)
          (short): Conv2d(256, 512, kernel_size=(1, 1), stride=(1, 1), bias=False)
          (act): ReLU()
        )
      )
      (conv2): Conv2d(512, 64, kernel_size=(1, 1), stride=(1, 1), bias=False)
    )
    (block2): BackBone(
      (conv1): Conv2d(64, 128, kernel_size=(3, 3), stride=(1, 1), padding=(1, 1), bias=False)
      (maxpool): MaxPool2d(kernel_size=3, stride=2, padding=1, dilation=1, ceil_mode=False)
      (bottlenecks): Sequential(
        (0): BottleNeck(
          (branch2a): Conv2d(128, 128, kernel_size=(1, 1), stride=(1, 1), bias=False)
          (branch2b): Conv2d(128, 128, kernel_size=(3, 3), stride=(1, 1), padding=(1, 1), bias=False)
          (branch2c): Conv2d(128, 256, kernel_size=(1, 1), stride=(1, 1), bias=False)
          (short): Conv2d(128, 256, kernel_size=(1, 1), stride=(1, 1), bias=False)
          (act): ReLU()
        )
        (1): BottleNeck(
          (branch2a): Conv2d(256, 256, kernel_size=(1, 1), stride=(1, 1), bias=False)
          (branch2b): Conv2d(256, 256, kernel_size=(3, 3), stride=(1, 1), padding=(1, 1), bias=False)
          (branch2c): Conv2d(256, 512, kernel_size=(1, 1), stride=(1, 1), bias=False)
          (short): Conv2d(256, 512, kernel_size=(1, 1), stride=(1, 1), bias=False)
          (act): ReLU()
        )
      )
      (conv2): Conv2d(512, 128, kernel_size=(1, 1), stride=(1, 1), bias=False)
    )
    (block3): BackBone(
      (conv1): Conv2d(128, 256, kernel_size=(3, 3), stride=(1, 1), padding=(1, 1), bias=False)
      (maxpool): MaxPool2d(kernel_size=3, stride=2, padding=1, dilation=1, ceil_mode=False)
      (bottlenecks): Sequential(
        (0): BottleNeck(
          (branch2a): Conv2d(256, 256, kernel_size=(1, 1), stride=(1, 1), bias=False)
          (branch2b): Conv2d(256, 256, kernel_size=(3, 3), stride=(1, 1), padding=(1, 1), bias=False)
          (branch2c): Conv2d(256, 512, kernel_size=(1, 1), stride=(1, 1), bias=False)
          (short): Conv2d(256, 512, kernel_size=(1, 1), stride=(1, 1), bias=False)
          (act): ReLU()
        )
        (1): BottleNeck(
          (branch2a): Conv2d(512, 512, kernel_size=(1, 1), stride=(1, 1), bias=False)
          (branch2b): Conv2d(512, 512, kernel_size=(3, 3), stride=(1, 1), padding=(1, 1), bias=False)
          (branch2c): Conv2d(512, 1024, kernel_size=(1, 1), stride=(1, 1), bias=False)
          (short): Conv2d(512, 1024, kernel_size=(1, 1), stride=(1, 1), bias=False)
          (act): ReLU()
        )
      )
      (conv2): Conv2d(1024, 256, kernel_size=(1, 1), stride=(1, 1), bias=False)
    )
    (fpn): PANBlock(
      (toplayer): ModuleList(
        (0): ConvBN(
          (conv): Conv2d(256, 64, kernel_size=(1, 1), stride=(1, 1), bias=False)
          (bn): BatchNorm2d(64, eps=1e-05, momentum=0.1, affine=True, track_running_stats=True)
          (act): SiLU()
        )
        (1): ConvBN(
          (conv): Conv2d(128, 64, kernel_size=(1, 1), stride=(1, 1), bias=False)
          (bn): BatchNorm2d(64, eps=1e-05, momentum=0.1, affine=True, track_running_stats=True)
          (act): SiLU()
        )
        (2): ConvBN(
          (conv): Conv2d(64, 64, kernel_size=(1, 1), stride=(1, 1), bias=False)
          (bn): BatchNorm2d(64, eps=1e-05, momentum=0.1, affine=True, track_running_stats=True)
          (act): SiLU()
        )
      )
      (lateral_convs): ModuleList(
        (0-2): 3 x ConvBN(
          (conv): Conv2d(128, 64, kernel_size=(3, 3), stride=(1, 1), padding=(1, 1), bias=False)
          (bn): BatchNorm2d(64, eps=1e-05, momentum=0.1, affine=True, track_running_stats=True)
          (act): SiLU()
        )
      )
      (bottom_up_convs): ModuleList(
        (0-2): 3 x ConvBN(
          (conv): Conv2d(64, 64, kernel_size=(3, 3), stride=(2, 2), padding=(1, 1), bias=False)
          (bn): BatchNorm2d(64, eps=1e-05, momentum=0.1, affine=True, track_running_stats=True)
          (act): SiLU()
        )
      )
    )
    (flatten): Flatten(start_dim=1, end_dim=-1)
  )
  (classify_head): Classify_head(
    (mlp): SimpleMLP(
      (linear1): Linear(in_features=50176, out_features=128, bias=True)
      (act): ReLU()
      (linear2): Linear(in_features=128, out_features=5, bias=True)
    )
  )
  (classify_severity): Classify_severity(
    (mlp): SimpleOrdinalMLP(
      (linear1): Linear(in_features=50181, out_features=128, bias=True)
      (act): ReLU()
      (linear2): OrdinalRegressionHead(
        (logits): Linear(in_features=128, out_features=3, bias=False)
      )
    )
  )
  (criterion): OverallCriterion(
    (loss): Criterion(
      (criterion_classes): BCEWithLogitsLoss()
      (criterion_severity): CrossEntropyLoss()
    )
  )
)
call with args: Namespace(base_lr=1e-06, batchsize_per_gpu=8, checkpoint_dir='results', clip_gradient=0.1, dataset_num_workers=4, eval_every_iteration=300, gpu='0', hidden_channels=128, hidden_dims=128, in_channels=3, in_dim=351232, is_pretrain=False, log_every=10, loss_classes_weight=5, loss_severity_weight=5, max_epoch=200, num_blocks=2, num_classes=5, num_severity=4, out_channels=64, shortcut=False, start_epoch=0, stride=1, weight_decay=0.0)
Detection(
  (classify): Classification(
    (block0): LargeBackBone(
      (backbone): BackBone(
        (conv1): Conv2d(3, 128, kernel_size=(3, 3), stride=(2, 2), padding=(1, 1), bias=False)
        (maxpool): MaxPool2d(kernel_size=3, stride=2, padding=1, dilation=1, ceil_mode=False)
        (bottlenecks): Sequential(
          (0): BottleNeck(
            (branch2a): Conv2d(128, 128, kernel_size=(1, 1), stride=(1, 1), bias=False)
            (branch2b): Conv2d(128, 128, kernel_size=(3, 3), stride=(1, 1), padding=(1, 1), bias=False)
            (branch2c): Conv2d(128, 256, kernel_size=(1, 1), stride=(1, 1), bias=False)
            (short): Conv2d(128, 256, kernel_size=(1, 1), stride=(1, 1), bias=False)
            (act): ReLU()
          )
          (1): BottleNeck(
            (branch2a): Conv2d(256, 256, kernel_size=(1, 1), stride=(1, 1), bias=False)
            (branch2b): Conv2d(256, 256, kernel_size=(3, 3), stride=(1, 1), padding=(1, 1), bias=False)
            (branch2c): Conv2d(256, 512, kernel_size=(1, 1), stride=(1, 1), bias=False)
            (short): Conv2d(256, 512, kernel_size=(1, 1), stride=(1, 1), bias=False)
            (act): ReLU()
          )
        )
        (conv2): Conv2d(512, 3, kernel_size=(1, 1), stride=(1, 1), bias=False)
      )
      (norm): BatchNorm2d(3, eps=1e-05, momentum=0.1, affine=True, track_running_stats=True)
    )
    (pool): AvgPool2d(kernel_size=2, stride=2, padding=0)
    (block1): BackBone(
      (conv1): Conv2d(3, 128, kernel_size=(3, 3), stride=(1, 1), padding=(1, 1), bias=False)
      (maxpool): MaxPool2d(kernel_size=3, stride=2, padding=1, dilation=1, ceil_mode=False)
      (bottlenecks): Sequential(
        (0): BottleNeck(
          (branch2a): Conv2d(128, 128, kernel_size=(1, 1), stride=(1, 1), bias=False)
          (branch2b): Conv2d(128, 128, kernel_size=(3, 3), stride=(1, 1), padding=(1, 1), bias=False)
          (branch2c): Conv2d(128, 256, kernel_size=(1, 1), stride=(1, 1), bias=False)
          (short): Conv2d(128, 256, kernel_size=(1, 1), stride=(1, 1), bias=False)
          (act): ReLU()
        )
        (1): BottleNeck(
          (branch2a): Conv2d(256, 256, kernel_size=(1, 1), stride=(1, 1), bias=False)
          (branch2b): Conv2d(256, 256, kernel_size=(3, 3), stride=(1, 1), padding=(1, 1), bias=False)
          (branch2c): Conv2d(256, 512, kernel_size=(1, 1), stride=(1, 1), bias=False)
          (short): Conv2d(256, 512, kernel_size=(1, 1), stride=(1, 1), bias=False)
          (act): ReLU()
        )
      )
      (conv2): Conv2d(512, 64, kernel_size=(1, 1), stride=(1, 1), bias=False)
    )
    (block2): BackBone(
      (conv1): Conv2d(64, 128, kernel_size=(3, 3), stride=(1, 1), padding=(1, 1), bias=False)
      (maxpool): MaxPool2d(kernel_size=3, stride=2, padding=1, dilation=1, ceil_mode=False)
      (bottlenecks): Sequential(
        (0): BottleNeck(
          (branch2a): Conv2d(128, 128, kernel_size=(1, 1), stride=(1, 1), bias=False)
          (branch2b): Conv2d(128, 128, kernel_size=(3, 3), stride=(1, 1), padding=(1, 1), bias=False)
          (branch2c): Conv2d(128, 256, kernel_size=(1, 1), stride=(1, 1), bias=False)
          (short): Conv2d(128, 256, kernel_size=(1, 1), stride=(1, 1), bias=False)
          (act): ReLU()
        )
        (1): BottleNeck(
          (branch2a): Conv2d(256, 256, kernel_size=(1, 1), stride=(1, 1), bias=False)
          (branch2b): Conv2d(256, 256, kernel_size=(3, 3), stride=(1, 1), padding=(1, 1), bias=False)
          (branch2c): Conv2d(256, 512, kernel_size=(1, 1), stride=(1, 1), bias=False)
          (short): Conv2d(256, 512, kernel_size=(1, 1), stride=(1, 1), bias=False)
          (act): ReLU()
        )
      )
      (conv2): Conv2d(512, 128, kernel_size=(1, 1), stride=(1, 1), bias=False)
    )
    (block3): BackBone(
      (conv1): Conv2d(128, 256, kernel_size=(3, 3), stride=(1, 1), padding=(1, 1), bias=False)
      (maxpool): MaxPool2d(kernel_size=3, stride=2, padding=1, dilation=1, ceil_mode=False)
      (bottlenecks): Sequential(
        (0): BottleNeck(
          (branch2a): Conv2d(256, 256, kernel_size=(1, 1), stride=(1, 1), bias=False)
          (branch2b): Conv2d(256, 256, kernel_size=(3, 3), stride=(1, 1), padding=(1, 1), bias=False)
          (branch2c): Conv2d(256, 512, kernel_size=(1, 1), stride=(1, 1), bias=False)
          (short): Conv2d(256, 512, kernel_size=(1, 1), stride=(1, 1), bias=False)
          (act): ReLU()
        )
        (1): BottleNeck(
          (branch2a): Conv2d(512, 512, kernel_size=(1, 1), stride=(1, 1), bias=False)
          (branch2b): Conv2d(512, 512, kernel_size=(3, 3), stride=(1, 1), padding=(1, 1), bias=False)
          (branch2c): Conv2d(512, 1024, kernel_size=(1, 1), stride=(1, 1), bias=False)
          (short): Conv2d(512, 1024, kernel_size=(1, 1), stride=(1, 1), bias=False)
          (act): ReLU()
        )
      )
      (conv2): Conv2d(1024, 256, kernel_size=(1, 1), stride=(1, 1), bias=False)
    )
    (fpn): PANBlock(
      (toplayer): ModuleList(
        (0): ConvBN(
          (conv): Conv2d(256, 64, kernel_size=(1, 1), stride=(1, 1), bias=False)
          (bn): BatchNorm2d(64, eps=1e-05, momentum=0.1, affine=True, track_running_stats=True)
          (act): SiLU()
        )
        (1): ConvBN(
          (conv): Conv2d(128, 64, kernel_size=(1, 1), stride=(1, 1), bias=False)
          (bn): BatchNorm2d(64, eps=1e-05, momentum=0.1, affine=True, track_running_stats=True)
          (act): SiLU()
        )
        (2): ConvBN(
          (conv): Conv2d(64, 64, kernel_size=(1, 1), stride=(1, 1), bias=False)
          (bn): BatchNorm2d(64, eps=1e-05, momentum=0.1, affine=True, track_running_stats=True)
          (act): SiLU()
        )
      )
      (lateral_convs): ModuleList(
        (0-2): 3 x ConvBN(
          (conv): Conv2d(128, 64, kernel_size=(3, 3), stride=(1, 1), padding=(1, 1), bias=False)
          (bn): BatchNorm2d(64, eps=1e-05, momentum=0.1, affine=True, track_running_stats=True)
          (act): SiLU()
        )
      )
      (bottom_up_convs): ModuleList(
        (0-2): 3 x ConvBN(
          (conv): Conv2d(64, 64, kernel_size=(3, 3), stride=(2, 2), padding=(1, 1), bias=False)
          (bn): BatchNorm2d(64, eps=1e-05, momentum=0.1, affine=True, track_running_stats=True)
          (act): SiLU()
        )
      )
    )
    (flatten): Flatten(start_dim=1, end_dim=-1)
  )
  (classify_head): Classify_head(
    (mlp): SimpleMLP(
      (linear1): Linear(in_features=351232, out_features=128, bias=True)
      (act): ReLU()
      (linear2): Linear(in_features=128, out_features=5, bias=True)
    )
  )
  (classify_severity): Classify_severity(
    (mlp): SimpleOrdinalMLP(
      (linear1): Linear(in_features=351237, out_features=128, bias=True)
      (act): ReLU()
      (linear2): OrdinalRegressionHead(
        (logits): Linear(in_features=128, out_features=3, bias=False)
      )
    )
  )
  (criterion): OverallCriterion(
    (loss): Criterion(
      (criterion_classes): BCEWithLogitsLoss()
      (criterion_severity): CrossEntropyLoss()
    )
  )
)
Epoch [0/200]; Iter [0/9600]; Loss 6.71; LR 1.00e-06; Iter time 0.76; ETA 2:01:29; Mem 2314.20MB
Epoch [0/200]; Iter [10/9600]; Loss 5.79; LR 1.00e-06; Iter time 0.04; ETA 0:06:44; Mem 2942.42MB
…
